pytorch_model.pt (torch_old, 88724 bytes, 8 tensors)

conv1.weight f4 [10, 1, 5, 5]
0	0x3d929067	0.07156449
1	0xbe5606b6	-0.20900998
2	0xbea94912	-0.3306356
3	0xbe9f0693	-0.31059703
4	0xbed543f7	-0.41653416
5	0x3e5f43d9	0.21803226
6	0x3d0b7880	0.034050465
7	0xbd8920e3	-0.06695726
8	0xbe3a5e83	-0.18200116
9	0xbe8375a4	-0.2567569
10	0x3e6b3b32	0.229718
11	0x3eb8f16b	0.36121687
12	0x3ec7f02a	0.39050418
13	0x3e1fbc01	0.15599062
14	0xbb5fd15d	-0.003415189
15	0x3c840d05	0.01611949
16	0x3e8ee11e	0.27906126
17	0x3ea2afd5	0.31774774
18	0x3eeeaeef	0.4661784
19	0x3e7ab7c6	0.24484167
20	0xbe6523c9	-0.22376932
21	0xbe86a1a4	-0.26295197
22	0xbe2e9394	-0.17048484
23	0xbddd3485	-0.10801033
24	0x3cba6419	0.022752808
25	0x3e295c32	0.16539076
26	0x3e9b43ae	0.30325073
27	0x3bfd910a	0.0077382373
28	0xbed2240b	-0.41043124
29	0xbe1ce131	-0.15320279
30	0x3e6efdc2	0.23338988
31	0x3ebe2a9a	0.37141877
32	0x3c1d46b2	0.009599375
33	0xbed58310	-0.41701555
34	0xbec4fe65	-0.38475338
35	0x3e2d1176	0.16901192
36	0x3edb92a2	0.4288531
37	0xbe22cc07	-0.15898143
38	0xbe50c61b	-0.20388071
39	0xbea5dc4c	-0.32394636
40	0x3ec204f8	0.37894416
41	0x3d9c002a	0.07617219
42	0x3da3e322	0.080023065
43	0xbe49b70f	-0.19698738
44	0xbe8040a9	-0.25049332
45	0x3e819d96	0.2531554
46	0x3dfab65b	0.12241813
47	0x3e188afe	0.14896771
48	0xbde8f1e9	-0.11374266
49	0xbdc1b63e	-0.09458588
50	0xbeccb0c0	-0.399786
51	0xbe8d8f17	-0.2764823
52	0x3c6c40a9	0.014419713
53	0x3d0bc360	0.03412187
54	0x3e9a4db7	0.30137417
55	0xbdfccabe	-0.123433575
56	0xbde88adb	-0.113546096
57	0x3c8f2144	0.017471917
58	0x3eadcd53	0.33945712
59	0x3e25cd50	0.16191602
60	0xbe7f384d	-0.24923821
61	0x3e27ba90	0.16379762
62	0x3ec86540	0.39139748
63	0x3ed8b73e	0.42327303
64	0xbe1661e1	-0.14685775
65	0x3cc578d1	0.024105461
66	0x3e18d13a	0.14923564
67	0x3e8f3f39	0.27977923
68	0xbd732b68	-0.059367567
69	0xbe734a60	-0.2375884
70	0x3e2ac9ae	0.16678497
71	0x3cfee53f	0.031115172
72	0x3d74cf28	0.059767872
73	0xbe0a7cba	-0.13524142
74	0xbdf0b434	-0.11753121
75	0x3e5911e9	0.21198238
76	0x3ec77f7b	0.38964447
77	0x3eb6f067	0.35730287
78	0x3cc4ae94	0.024009027
79	0x3e3d52ba	0.18488589
80	0xbe16f60e	-0.147423
81	0xbd03319a	-0.032029726
82	0x3e0af622	0.13570455
83	0x3e027581	0.12740137
84	0x3e6874f8	0.2270087
85	0xbe3bd474	-0.18342763
86	0xbe816083	-0.25268945
87	0x3d47bca7	0.048763897
88	0xbc705a9b	-0.0146700395
89	0x3e14d56b	0.14534537
90	0x3d81997d	0.06328104
91	0xbe891bc1	-0.26778987
92	0xbe403e43	-0.18773751
93	0xbdba3db7	-0.090938024
94	0xbe89d5c9	-0.26920918
95	0xbd0025ca	-0.03128604
96	0x3d1640e9	0.036682997
97	0xbe1de671	-0.15419938
98	0xbe825d30	-0.2546172
99	0xbe5334c2	-0.20625594
100	0x3ead90d8	0.3389957
101	0x3d96454a	0.073374346
102	0x3e29daf6	0.16587433
103	0x3cc80761	0.024417581
104	0xbe6edbcb	-0.23326032
105	0xbe397569	-0.18111195
106	0x3e9dc7c4	0.30816472
107	0x3dc7c285	0.097538985
108	0x3d898814	0.06715408
109	0xbc28525b	-0.010273541
110	0xbcaad16e	-0.020851817
111	0x3eba2292	0.363545
112	0x3e99f31c	0.3006829
113	0xbe368dc3	-0.17827515
114	0x3d17a678	0.03702399
115	0x3de34c32	0.110985175
116	0x3ea1b0e9	0.31580284
117	0x3e8acfab	0.27111563
118	0xbd3637ae	-0.044486694
119	0xbbaeff85	-0.005340519
120	0xbe431ed1	-0.19054724
121	0x3d3635ac	0.04448478
122	0x3e9909b3	0.29890212
123	0x3c03af3d	0.0080373855
124	0x3e7c4b6d	0.24638148
125	0xbe576765	-0.21035536
126	0xbeabea5e	-0.33577245
127	0xbe3720e5	-0.17883642
128	0x3e5a664e	0.21328089
129	0x3eca3037	0.3948991
130	0xbe1fbe77	-0.156
131	0x3d8da864	0.069168836
132	0x3e889771	0.2667804
133	0x3ec73365	0.38906398
134	0x3e6581b6	0.22412762
135	0x3e6e770b	0.23287599
136	0x3e491c5f	0.19639729
137	0x3d869222	0.06570841
138	0xbd6804ae	-0.056645088
139	0xbe6a5773	-0.22884922
140	0xbbc1e2bf	-0.005916923
141	0xbcf85de6	-0.030318212
142	0xbe5738a6	-0.21017703
143	0x3d97e4dd	0.07416699
144	0x3df0b64a	0.11753519
145	0xbc8d4fd1	-0.017249973
146	0x3cab3501	0.020899298
147	0x3bd6d6eb	0.006556382
148	0x3e3199a8	0.17343771
149	0x3e78eee7	0.24309884
150	0xbe0d1f32	-0.13781431
151	0x3de77770	0.11302078
152	0xbcceb4a1	-0.025232615
153	0x3ce8eb68	0.028432563
154	0xbe72c412	-0.23707607
155	0xbe6a8ff9	-0.22906484
156	0xbe35aeef	-0.17742513
157	0xbd2c0ee7	-0.0420064
158	0x3e629d6c	0.22130364
159	0xbddacb77	-0.10683339
160	0xbe7d9a1f	-0.24765824
161	0x3d2d0e9f	0.042250272
162	0x3df6a72f	0.120436065
163	0x3e2debfb	0.1698455
164	0xbe2ca35f	-0.16859196
165	0xbcc01b97	-0.023450656
166	0xbdb4f1c3	-0.08835175
167	0xbcde540c	-0.027139686
168	0xbe16538c	-0.14680308
169	0xbd8a51e5	-0.067539014
170	0xbcf7fd8a	-0.030272264
171	0x3dabf556	0.083964035
172	0x3d7d119b	0.061784368
173	0x3e267631	0.16256024
174	0x3ec80bba	0.39071447
175	0x3e1dd4e7	0.15413247
176	0x3e58f9a2	0.21188977
177	0x3e10b748	0.14132416
178	0xbde69df0	-0.11260593
179	0x3e56b8b9	0.20968904
180	0xbe7137d5	-0.23556454
181	0xbe64c1b0	-0.22339511
182	0xbecd8ff3	-0.40148887
183	0xbeb1f696	-0.34758443
184	0xbebbff30	-0.3671813
185	0x3db4fe54	0.08837572
186	0xbe93f347	-0.28896543
187	0xbe9f5b08	-0.3112414
188	0xbe478c86	-0.19487199
189	0xbe586fe9	-0.2113644
190	0x3e6d2555	0.23158772
191	0x3e03050e	0.12794897
192	0x3dda5c61	0.10662151
193	0x3e1249b3	0.14285927
194	0x3e93ab26	0.28841513
195	0x3b61c170	0.0034447573
196	0x3ecc20b8	0.39868712
197	0x3ef604dc	0.48050582
198	0x3ecc9ff6	0.3996579
199	0x3c681f47	0.014167613
200	0x3d04cbcc	0.03242092
201	0xbe01e524	-0.12685066
202	0x3e7fd73b	0.24984448
203	0x3d4a9fa3	0.049468648
204	0x3e167931	0.14694668
205	0xbd4cfa51	-0.050043408
206	0xbd8dbb43	-0.06920483
207	0x3d422845	0.047401685
208	0x3e7f5a77	0.24936853
209	0x3e8d6444	0.2761556
210	0xbc8490f6	-0.016182404
211	0xbbf0db46	-0.007350358
212	0xbe66b75b	-0.22530882
213	0x3e7ef156	0.2489675
214	0x3ecef0af	0.40418002
215	0x3db861b2	0.09003009
216	0x3d31f07f	0.043442246
217	0xbe80ae16	-0.25132817
218	0xbdfddf23	-0.123960756
219	0x3ea11d4d	0.31467667
220	0xbec2cc54	-0.38046515
221	0xbda349f9	-0.079730935
222	0xbed45fe3	-0.41479406
223	0xbed5f02c	-0.417848
224	0xbbbc5ab5	-0.005748118
225	0xbdf0e510	-0.1176244
226	0xbbb6004a	-0.0055542337
227	0x3e9b5319	0.30336836
228	0x3ecb8255	0.39747873
229	0x3ed028e6	0.40656203
230	0xbdcc15dc	-0.09965107
231	0xbe5284a3	-0.2055841
232	0x3e970593	0.2949644
233	0x3e18c756	0.1491979
234	0x3deba3da	0.115058616
235	0xbd9ddad9	-0.077077575
236	0xbe61cbd7	-0.22050415
237	0x3e08b22b	0.13349216
238	0x3e6298f5	0.22128661
239	0xbd45f239	-0.048326705
240	0xbe95754e	-0.2919106
241	0xbe05d0ef	-0.13067983
242	0xbc96c4a3	-0.01840431
243	0xbd19f841	-0.03759027
244	0xbdf05ddd	-0.11736653
245	0xbe26ca95	-0.16288216
246	0xbeccdd09	-0.40012386
247	0xbebae1cf	-0.36500403
248	0xbe900043	-0.281252
249	0x3cf8339a	0.030298043

conv1.bias f4 [10]
0	0x3cdcf90e	0.026974227
1	0xbdeabe2e	-0.11462055
2	0xbd9486a0	-0.0725224
3	0x3d72fad5	0.059321243
4	0x3e3c5d38	0.18394935
5	0x3d1a7427	0.037708428
6	0x3dd288f8	0.10280031
7	0x3dc2a56b	0.09504207
8	0xbce6fdf1	-0.02819726
9	0x3bfa4740	0.007637888

conv2.weight f4 [20, 10, 5, 5]
0	0x3bea42fa	0.0071490975
1	0x3ce0591f	0.027386246
2	0xbe1e13d2	-0.15437248
3	0xbd02b1d8	-0.031907886
4	0x3d1088b2	0.035286613
5	0xbd563952	-0.05230076
6	0xbd16814e	-0.03674441
7	0xbdf566ac	-0.11982474
8	0x3cf1f94d	0.029537821
9	0xbb188253	-0.0023271039
10	0x3d8294c5	0.06376032
11	0x3b04d48d	0.0020268292
12	0xbd09c756	-0.033637367
13	0x3d58489d	0.052803624
14	0x3cca3a12	0.024685893
15	0xbdb1ddb7	-0.08684867
16	0xbd496cce	-0.04917603
17	0x3c8479e8	0.01617141
18	0x3c446849	0.011987754
19	0x3cc7a13c	0.024368875
20	0x3c77e3b4	0.015129972
21	0x3d5c8442	0.05383707
22	0x3d89e85a	0.06733771
23	0x3c8af39b	0.016961863
24	0xbd9850a9	-0.0743726
25	0xbcd7b2a5	-0.026330302
26	0xbdc28f0d	-0.09499941
27	0xbc3ff6e0	-0.011716574
28	0x3ca971a8	0.020684078
29	0xba40165d	-0.0007327551
30	0xbd1a09a0	-0.037606835
31	0xbdb36fec	-0.08761582
32	0x3d636fea	0.05552665
33	0x3d9b1d49	0.07573945
34	0xbaf6fede	-0.0018844267
35	0xbdb595e2	-0.088664785
36	0x3c849945	0.016186366
37	0x3cbb3f30	0.022857279
38	0x3c4d0216	0.012512704
39	0xbaf045bc	-0.0018331329
40	0xbd8f33e6	-0.06992321
41	0xbc02ccb3	-0.007983374
42	0x3c9ae1ef	0.018906562
43	0xbcba5d49	-0.02274956
44	0xbcf57242	-0.029961709
45	0x3ac97eef	0.0015372912
46	0xbb82a83a	-0.0039873393
47	0x3a939ad1	0.0011261349
48	0xbdb119bc	-0.086474866
49	0xbdb31d5d	-0.08745835
50	0x3d8312c5	0.064000644
51	0xbcb8d134	-0.022560693
52	0x3d24a9fa	0.040201165
53	0x3d5aecfd	0.053448666
54	0x3e0a8cbd	0.1353025
55	0xbd98daa0	-0.074635744
56	0x3d293aa2	0.041315682
57	0x3d9e3541	0.07725001
58	0x3df083aa	0.11743863
59	0x3c93eb24	0.01805646
60	0xbd5254e6	-0.051350497
61	0x3bd24615	0.006417046
62	0x3bef298e	0.007298655
63	0x3c219863	0.009862992
64	0xbd2297cc	-0.039695546
65	0xbdca60c8	-0.09881741
66	0xbdd1df99	-0.10247726
67	0xbd2889f6	-0.041147195
68	0xbdcdfd9e	-0.10058139
69	0xbd8e4a0c	-0.06947717
70	0x3cadaa44	0.021199353
71	0xbd93d738	-0.07218784
72	0xbd8608ea	-0.06544669
73	0xbda49837	-0.08036845
74	0xbd992415	-0.07477585
75	0x3d2e5f5b	0.042571407
76	0xbd67118b	-0.056413215
77	0xbd37ba3b	-0.044855338
78	0xbc098f3a	-0.008395964
79	0x3c10e647	0.008843965
80	0xbccee28f	-0.025254516
81	0xbd11d855	-0.0356067
82	0xbd90ef47	-0.070768885
83	0x3c9e5fac	0.01933273
84	0x3b113828	0.0022158716
85	0xbb0c926f	-0.0021449586
86	0xbd2af240	-0.041734934
87	0xbd545d64	-0.051846877
88	0xbdae27cf	-0.08503687
89	0xbd3ce8f1	-0.046120588
90	0x3e0ca941	0.1373644
91	0x3dc4bdd4	0.09606519
92	0xbc88a4e0	-0.016680181
93	0xbd348526	-0.044072293
94	0x3d20349c	0.039112672
95	0x3d102db6	0.035199843
96	0x3e04f5a9	0.12984337
97	0x3dc4ddd9	0.096126266
98	0x3da5119d	0.0806
99	0x39ae0c7d	0.0003319717
100	0x3d1ea2a8	0.03872934
101	0xbda06202	-0.078311935
102	0x3bf8c487	0.0075917873
103	0x3d6a3bed	0.057186056
104	0x3e118022	0.14209035
105	0xbd3028f2	-0.0430078
106	0xbdefd604	-0.11710742
107	0xbce2e745	-0.027698169
108	0x3da9281b	0.08259603
109	0xbba72b0a	-0.005101566
110	0xbdca7213	-0.09885039
111	0x3d6c1f40	0.05764699
112	0x3d326dbc	0.043561682
113	0x3c068eb8	0.008212738
114	0xbcbb10d4	-0.022835173
115	0xbdccd40a	-0.10001381
116	0xbd80b868	-0.06285173
117	0x3d2208c2	0.039559133
118	0x3bd00290	0.0063479617
119	0xbdaa7ea8	-0.08324939
120	0xbd3d1425	-0.04616179
121	0xbdf15273	-0.11783304
122	0xbdd920ac	-0.10601935
123	0xbdc98e32	-0.09841575
124	0xbe0e4a0e	-0.13895437
125	0x3d84e14d	0.06488285
126	0x3d4fc8b2	0.050728507
127	0x3de71f6f	0.11285292
128	0x3de0fb86	0.10985474
129	0x3b111f80	0.002214402
130	0xbc0e0cfe	-0.00867009
131	0x3db65c69	0.089043446
132	0x3dbfe2a0	0.09369397
133	0x3dae6c8d	0.08516798
134	0x3d604fa1	0.05476344
135	0x3cb41ac8	0.021985427
136	0x3deb8dc1	0.11501647
137	0x3dc60511	0.09668935
138	0x3d8a3d73	0.06750002
139	0xbd251e45	-0.04031207
140	0xbde1d63c	-0.1102719
141	0x3c782d84	0.0151475705
142	0x3ce53fcf	0.027984528
143	0xbd389a4c	-0.045069024
144	0xbdbc7af2	-0.092031375
145	0xbdcbca04	-0.09950641
146	0xbddad48c	-0.10685071
147	0xbe01187a	-0.12606993
148	0xbc7473be	-0.014920173
149	0xbd896178	-0.06708044
150	0xbb3f4d61	-0.0029190409
151	0xbb71136e	-0.0036785263
152	0x3cf575fa	0.029963482
153	0xbcb2ff24	-0.021850176
154	0x3cf38a96	0.029729169
155	0x3d338858	0.0438312
156	0xbd71519f	-0.05891573
157	0x3dad5c22	0.084648386
158	0xbcd0cf7e	-0.025489565
159	0xbd458454	-0.0482219
160	0xbd5aae41	-0.053388838
161	0x3d6d50d2	0.057938404
162	0x3d2f1dab	0.042752903
163	0x3d969f7c	0.07354638
164	0xbcd57f57	-0.026061697
165	0x3c976f2e	0.018485632
166	0xbd1066c7	-0.035254266
167	0xbd025aac	-0.031824753
168	0x3ba56dc2	0.0050484845
169	0xbd29ab7a	-0.0414233
170	0x3ca0010a	0.019531745
171	0xbcac459e	-0.02102929
172	0x3c2e4917	0.010637543
173	0x3c214f2d	0.009845537
174	0xbd314144	-0.043275133
175	0xbd87cc16	-0.06630723
176	0x3d2e0ad1	0.042490784
177	0xbd363c7d	-0.04449128
178	0xbb1dfe12	-0.0024107737
179	0x3d8fb867	0.07017594
180	0x3ad67efa	0.0016364746
181	0x3dd8f1e0	0.10593009
182	0xbdef3370	-0.11679733
183	0x3b51c38d	0.0032007426
184	0x3d23f5e2	0.040029414
185	0xbb8fe951	-0.004391827
186	0xbd1ec0c9	-0.038758073
187	0xbc6539f3	-0.013990867
188	0xbd543cad	-0.051815677
189	0x3901aace	0.00012366028
190	0x3d5cb7e5	0.053886313
191	0x3cce28a3	0.025165861
192	0x3da0ba80	0.07848072
193	0x3d980611	0.07423032
194	0x3deda54c	0.116037935
195	0x3e090a06	0.1338273
196	0x3d2abe8f	0.041685637
197	0x3c9eba53	0.019375956
198	0x3d151927	0.03640094
199	0xbdb46b3e	-0.08809517
200	0x3cbd1889	0.023082988
201	0xbda0fd22	-0.07860781
202	0x3881d08c	6.190044e-05
203	0x3bb7c16c	0.0056077745
204	0xbc8d94cd	-0.017282868
205	0x3c2ac734	0.01042347
206	0xbd2e6670	-0.04257816
207	0xbd12a054	-0.035797432
208	0x3c897210	0.016778022
209	0xbc3e4189	-0.0116123045
210	0x3d5c1b0c	0.05373673
211	0x3b964007	0.0045852694
212	0x3dc3ed96	0.095668
213	0x3d80bb01	0.06285668
214	0x3cae0993	0.0212448
215	0x3d81b95d	0.06334183
216	0xbc996a48	-0.018727437
217	0x3d7e07f3	0.0620193
218	0x3a424f4e	0.000741233
219	0xbde80584	-0.11329177
220	0xbd9cbee3	-0.07653596
221	0xbdcabf3a	-0.09899755
222	0xbcc5d3b6	-0.024148803
223	0xbd5d3bb4	-0.054012015
224	0xbd8fa39a	-0.070136264
225	0x3dbcfac8	0.0922752
226	0xbda3affd	-0.079925515
227	0x3d6efe89	0.058348212
228	0xbbe5d5b5	-0.0070140013
229	0xbca150eb	-0.019691905
230	0x3d69c9da	0.057077266
231	0xbc989abe	-0.018628474
232	0x3c7999a5	0.015234386
233	0xbdbe9ffc	-0.09307858
234	0x3ce3cd0c	0.027807735
235	0x3d870426	0.06592588
236	0x3d9a7b65	0.07543067
237	0xbd2dc894	-0.042427614
238	0xbd100ae8	-0.03516665
239	0x3cb96b18	0.022634074
240	0x3d006da4	0.03135456
241	0x3ccb7a7b	0.024838677
242	0xbba7cafc	-0.005120633
243	0x3c10f10a	0.008846531
244	0xbd082627	-0.03323951
245	0xbdd638cd	-0.10460053
246	0xbd885556	-0.066569015
247	0xbd68caa2	-0.05683387
248	0x3d1bfa0b	0.038080256
249	0xbda91893	-0.0825664
250	0xbce2a201	-0.02766514
251	0x3cf0b5da	0.029383589
252	0xbce54d13	-0.027990853
253	0x3daee019	0.08538837
254	0x3dfde3b3	0.12396946
255	0xbd9788e9	-0.073991604

conv2.bias f4 [20]
0	0x3d171634	0.03688641
1	0xbd111123	-0.035416733
2	0x3d2a8354	0.04162915
3	0xbd2e0050	-0.042480767
4	0xbcb35219	-0.021889733
5	0xbd0bcd51	-0.03413135
6	0xbd232390	-0.039828837
7	0xbad7b583	-0.0016457293
8	0xbd813e0d	-0.06310663
9	0xbcff2278	-0.031144366
10	0x3c82fc91	0.015989574
11	0xbd7ff665	-0.06249084
12	0xbd70c3bb	-0.058780413
13	0x3d96bf3c	0.07360694
14	0xbcc81b5c	-0.024427108
15	0xbdae90a8	-0.08523685
16	0x3ac257ba	0.001482717
17	0xbda1c32f	-0.078985564
18	0xbc791f6a	-0.015205244
19	0x3cea844e	0.02862754

fc1.weight f4 [50, 320]
0	0xbd3b69ca	-0.045755185
1	0xbd42dc3b	-0.04757331
2	0xbca87bc6	-0.020566832
3	0x3cb74b66	0.02237482
4	0x3dd8c516	0.10584466
5	0xbd7ebed4	-0.062193707
6	0x3b9dba7f	0.004813492
7	0x3d8287dc	0.06373569
8	0x3d10cc60	0.035351157
9	0xbcc07bf5	-0.023496607
10	0x3d707d84	0.05871345
11	0x3d0e0811	0.03467566
12	0x3d3a55dc	0.045492038
13	0xbd7d53b0	-0.06184739
14	0xbc92e3ab	-0.017930826
15	0xbd8864a6	-0.06659822
16	0xbb00f77b	-0.001967876
17	0x3cec1da1	0.028822722
18	0xbcdd877f	-0.027042149
19	0x3d549f0a	0.051909484
20	0x3d8288d5	0.06373755
21	0x3c124506	0.008927589
22	0x3d73ee74	0.05955358
23	0x3d8ad9c7	0.06779819
24	0x3cf545d7	0.029940529
25	0xbdb690fa	-0.08914371
26	0x3d0aa327	0.033847
27	0x3d2a44c9	0.041569505
28	0xbc514f23	-0.012775215
29	0xbd963810	-0.07334912
30	0xbcd6278c	-0.026141904
31	0xbc9b149f	-0.018930731
32	0xbd237c0d	-0.039913226
33	0xbc61a1be	-0.0137714725
34	0xbd62f788	-0.055411845
35	0xbd671521	-0.056416634
36	0x3d279353	0.040911984
37	0x3cbff05a	0.023430038
38	0x3c569128	0.013096131
39	0x3d992a3a	0.07478757
40	0x3e04f0f6	0.12982544
41	0x3d452b02	0.04813672
42	0x3c67c816	0.014146825
43	0x3bbe6a8d	0.0058110417
44	0xbd690b59	-0.056895588
45	0xbcf5c0ca	-0.029999156
46	0x3c69ab47	0.014262027
47	0xbdc0ffff	-0.094238274
48	0x3cbe9a18	0.023266837
49	0x3c9cfdc6	0.019163977
50	0x3cde39f6	0.027127247
51	0x3cf2dbc0	0.0296458
52	0x3b42f791	0.0029749612
53	0x3caf00d2	0.021362696
54	0xbcaef7c0	-0.02135837
55	0xbbff196d	-0.0077850134
56	0xbd066aa6	-0.03281655
57	0xbd4418b8	-0.047875136
58	0xbd57119e	-0.052507035
59	0xbac769e2	-0.0015214051
60	0xbd156735	-0.03647538
61	0xbd136118	-0.035981268
62	0x3d1092ac	0.035296127
63	0xbd8189d9	-0.063251205
64	0x3d097404	0.033557907
65	0x3c42d79f	0.011892228
66	0x3c7ffa5a	0.015623653
67	0xbc08647e	-0.00832474
68	0x3d5931d5	0.05302604
69	0xbb6746a2	-0.0035289903
70	0xbcd1f588	-0.025629774
71	0x3b2399d8	0.0024963524
72	0xbd64af65	-0.05583133
73	0xbda024b3	-0.078195
74	0xbcfe9667	-0.031077577
75	0xbc3baa40	-0.011454165
76	0xbd19277b	-0.037391167
77	0x3d5df4a4	0.054188386
78	0x3ccb769c	0.02483683
79	0xbcca9af2	-0.024732087
80	0xbcf3ba05	-0.029751787
81	0x3d1cf20b	0.038316768
82	0xbc9245b3	-0.0178555
83	0xbd077219	-0.033067796
84	0xbc89d46e	-0.016824927
85	0xbd05c176	-0.0326552
86	0xbbf749b6	-0.007546629
87	0x3c82a14f	0.015946059
88	0xbcd3b691	-0.02584389
89	0xbc49e378	-0.012322299
90	0xbd04a896	-0.03238734
91	0xbd72796c	-0.05919783
92	0x3d8ae791	0.06782449
93	0x3d9999c1	0.07500029
94	0x3dd656ce	0.104657754
95	0x3c019386	0.0079087075
96	0x3d0489a7	0.032357838
97	0xbc4b95f2	-0.0124258865
98	0x3d81d848	0.063400805
99	0x3ba2c45b	0.004967255
100	0x3c6da155	0.014503797
101	0xbd5b0bdb	-0.053478103
102	0xbd4fb130	-0.05070609
103	0x3bcad291	0.0061896523
104	0xbcb6fab3	-0.02233634
105	0xbd5c4862	-0.053779967
106	0x3cd1d9d6	0.025616568
107	0x3cccb819	0.024990128
108	0x3d8d69cf	0.06904947
109	0xbc8f59c8	-0.017498866
110	0xbb80eeee	-0.0039347326
111	0x3d59dbde	0.053188197
112	0x3c533cff	0.012892961
113	0x39054d7b	0.00012712732
114	0x3d729653	0.05922539
115	0x3d2810ef	0.041031774
116	0x3d901c7f	0.07036685
117	0x3cc08cf6	0.023504715
118	0x3c970f39	0.018439876
119	0x3d6dc7fa	0.05805204
120	0x3de6ee8d	0.11275969
121	0xbcd98ac6	-0.02655543
122	0xbd333e9a	-0.043760873
123	0x3b142e87	0.002261074
124	0xbd3d1f2e	-0.046172313
125	0xbda8c732	-0.082411185
126	0xbd86e48b	-0.0658656
127	0xbd33b47d	-0.0438733
128	0xbcc2fe24	-0.023802824
129	0x3ccbb511	0.024866613
130	0x3d8f9858	0.07011479
131	0x3ce5a016	0.028030436
132	0x3c12f133	0.008968639
133	0x3da5792d	0.08079753
134	0x3db99872	0.0906228
135	0x3d8c7c7e	0.068596825
136	0x3d862fc0	0.06552076
137	0x3cd0f306	0.025506508
138	0xbcc54534	-0.02408085
139	0x3d1c1aa4	0.038111344
140	0xbd335e2c	-0.04379098
141	0xbd117084	-0.035507694
142	0xbd7e85bb	-0.062139254
143	0xbd613d84	-0.054990306
144	0xbc77ee2a	-0.015132466
145	0xbcdeaefd	-0.02718305
146	0xbce56089	-0.028000133
147	0x3ca1479f	0.019687472
148	0x3d518738	0.051154345
149	0xbc89c2f9	-0.016816603
150	0xbbbefa26	-0.00582816
151	0xbc3f92f7	-0.011692754
152	0xbcc4dafc	-0.024030201
153	0xbd474283	-0.048647415
154	0xbd253c32	-0.04034061
155	0x3c12f147	0.008968658
156	0x3da4ab6b	0.08040508
157	0x3dad381c	0.08457968
158	0x3d3c26da	0.04593549
159	0x3d2f3976	0.04277941
160	0x3d38d8a6	0.045128487
161	0xbc22be49	-0.009933063
162	0xbd8820c2	-0.06646873
163	0xbb947973	-0.0045310794
164	0xbb67b02e	-0.0035352814
165	0xbd6f4640	-0.058416605
166	0x3cfe3fb8	0.031036243
167	0xbd2ea84f	-0.04264098
168	0xbda8ae1c	-0.08236334
169	0x3cdb459c	0.02676659
170	0xbc878510	-0.016542941
171	0x3d0007a2	0.03125728
172	0x3db117a1	0.08647085
173	0x3dc3bb5f	0.095572226
174	0x3db480a7	0.08813601
175	0xbcc7cd95	-0.024390021
176	0xbcab3bab	-0.020902475
177	0xbd8af43b	-0.067848645
178	0xbd877f8f	-0.06616127
179	0xbd21ca89	-0.039499793
180	0x3cd5167f	0.026011704
181	0x3da49848	0.08036858
182	0x3c78f1b9	0.01519435
183	0xbc8f6325	-0.01750333
184	0xbd3aee03	-0.045637142
185	0xbd5ea3c1	-0.054355387
186	0x3b8a9b01	0.0042299037
187	0xbcba22dd	-0.022721702
188	0xbbefab49	-0.00731412
189	0x3daf15eb	0.085491024
190	0x3ca284ce	0.019838717
191	0x3d5bcccf	0.053662118
192	0xbc21ce3b	-0.009875829
193	0x3bc99f29	0.0061530066
194	0xbccf51a2	-0.02530748
195	0xbcd6af9e	-0.026206788
196	0x3d8ee16c	0.069765896
197	0x3d229f98	0.03970298
198	0xbbf0b5c5	-0.0073458874
199	0xbc860c08	-0.016363159
200	0x3e0b9de8	0.13634455
201	0xbd667138	-0.056260318
202	0xbc99d751	-0.018779429
203	0xbc2a3d17	-0.0103905415
204	0xbc688cfd	-0.0141937705
205	0xbd3d98ee	-0.046288423
206	0x3cd5a04d	0.026077414
207	0xbcba6b72	-0.022756312
208	0xbcac44da	-0.021028925
209	0x3d629786	0.055320285
210	0x3d967755	0.073469795
211	0x3ca95b37	0.020673377
212	0x3bdb4bfd	0.006692408
213	0xbcfab0e6	-0.03060193
214	0x3d85690c	0.06514177
215	0xbc73e376	-0.014885774
216	0xbddcd555	-0.10782877
217	0xbc9363c8	-0.017991915
218	0xbc9ea8ff	-0.019367693
219	0xbd12d1e9	-0.035844717
220	0xbbfe0fc0	-0.0077533424
221	0x3bf0ec75	0.0073524066
222	0xbcaf6f78	-0.021415457
223	0xbd5e3151	-0.05424625
224	0x3d01c75d	0.03168427
225	0x3bfbff83	0.0076903715
226	0xbd63ed96	-0.0556465
227	0xbd287a34	-0.041132167
228	0x3c01ee9a	0.007930422
229	0xbcaac947	-0.02084793
230	0xbd5726c9	-0.052527223
231	0x3c91db94	0.017804898
232	0xbd3a7735	-0.04552384
233	0xbc92bbd8	-0.017911837
234	0xbd064a82	-0.0327859
235	0xbce23753	-0.027614271
236	0xbbee3782	-0.0072698006
237	0xbc88ee72	-0.016715262
238	0x3d0dfee8	0.034666926
239	0x3d491bc9	0.049098764
240	0x3b94d451	0.0045419117
241	0xbd1b15aa	-0.037862457
242	0xbe15a810	-0.14614892
243	0xbdca1ea8	-0.098691285
244	0xbb12eafb	-0.0022417891
245	0xbc9cbb9e	-0.019132432
246	0xbd6145d7	-0.054998245
247	0x3d03451e	0.032048337
248	0x3db553cc	0.088538736
249	0x3d2a5b15	0.04159077
250	0x3d6a0dbe	0.05714201
251	0xbc4406d6	-0.01196452
252	0xbce30f4c	-0.027717255
253	0xbc8db5f7	-0.017298682
254	0x3d13f9d0	0.03612691
255	0xbc6137b5	-0.013746192

fc1.bias f4 [50]
0	0x3d81eac1	0.06343604
1	0x3d2a7bce	0.041621976
2	0x3c784d67	0.015155173
3	0x3c613487	0.013745434
4	0x3cf46ef9	0.029838072
5	0x3c2729e1	0.010202856
6	0x3bf233d3	0.007391432
7	0xbca86f96	-0.02056102
8	0x3d4b7cb6	0.04967948
9	0x3ca7193b	0.020397773
10	0x3cac03bc	0.020997874
11	0x3db0171f	0.0859816
12	0xbc805431	-0.015665146
13	0x3c964146	0.018341672
14	0x3c434827	0.011919058
15	0xbce80c55	-0.028326193
16	0x3da55829	0.08073456
17	0x3d3e1987	0.046411064
18	0x3d973f3c	0.07385108
19	0xbc49d3a3	-0.0123185245
20	0x3d322f91	0.043502394
21	0x3d0f6e75	0.03501745
22	0xbcf38157	-0.02972476
23	0x3d64f61f	0.055898782
24	0x3d6c8259	0.057741497
25	0xbb6e54fc	-0.0036366573
26	0x3db8ff39	0.09033055
27	0x3a37da78	0.00070134504
28	0xbc9fa5f0	-0.019488305
29	0xbc61ca1e	-0.013781099
30	0xbc572f9f	-0.013133912
31	0x3d405704	0.046957985
32	0x3cb642de	0.022248682
33	0xbcafbbba	-0.02145182
34	0xbccf825e	-0.025330719
35	0x3dca66a6	0.0988286
36	0x3d15d4a2	0.036579736
37	0xbd597c89	-0.05309728
38	0x3d33efe7	0.04392996
39	0xbc69527d	-0.014240858
40	0x3cfeb661	0.031092824
41	0x3dc7989b	0.09745904
42	0x3d53d8ec	0.051720545
43	0xbcbd387b	-0.023098221
44	0x3b8d87e1	0.0043191765
45	0x3d2aef3c	0.041732058
46	0xbcc82abd	-0.024434442
47	0xbcd561db	-0.026047638
48	0x3d6db028	0.058029324
49	0x3d98b0a0	0.074555635

fc2.weight f4 [10, 50]
0	0xbdbe7f9a	-0.09301682
1	0xbe20f730	-0.15719295
2	0x3e11ea74	0.14249593
3	0x3e4f3df9	0.20238484
4	0xbe52863a	-0.20559016
5	0xbd667bc8	-0.05627039
6	0xbe5a5d1d	-0.21324582
7	0xbe1e1fa0	-0.15441751
8	0xbe0a5960	-0.13510656
9	0xbe540872	-0.20706347
10	0xbe705589	-0.23470129
11	0xbe1a0b39	-0.15043344
12	0xbe061278	-0.13092983
13	0x3e5ea96e	0.2174432
14	0x3e817a48	0.25288606
15	0x3e24a48b	0.16078393
16	0x3e17f389	0.14838995
17	0x3e8432aa	0.25819904
18	0x3d8e0221	0.06934
19	0xbe164082	-0.14673045
20	0xbe1e300f	-0.1544802
21	0xbe453b94	-0.19261009
22	0xbe1e623c	-0.15467161
23	0xbe9088db	-0.28229412
24	0xbdd8b4d7	-0.105813675
25	0xbe852891	-0.26007512
26	0xbe73f29a	-0.23823014
27	0xbe778c7b	-0.24174683
28	0x3b21067d	0.0024570518
29	0x3e88e9de	0.26740927
30	0xbe1d717f	-0.15375327
31	0xbe2f5a81	-0.17124368
32	0x3e8396f4	0.25701106
33	0x3e2bea3f	0.16788577
34	0xbe296c06	-0.16545114
35	0x3e6424cf	0.22279666
36	0x3df08f9d	0.11746142
37	0x3cc10ed1	0.023566635
38	0x3e0a4b5a	0.13505307
39	0xbe4121c0	-0.18860531
40	0xbe1e3fd6	-0.15454039
41	0xbe69200a	-0.22766128
42	0x3e1c0f8f	0.1524031
43	0xbe2ab607	-0.16671
44	0xbd350ff7	-0.04420468
45	0x3e836561	0.25663283
46	0xbdf8ca45	-0.12147955
47	0xbe00c8f6	-0.1257666
48	0x3e5d88d7	0.21634232
49	0x3e574f6d	0.21026392
50	0xbdc997d5	-0.09843413
51	0x3e2da82f	0.16958688
52	0xbe7f67be	-0.24941918
53	0x3e332d97	0.1749786
54	0x3e60f17a	0.21967116
55	0x3e5257a8	0.2054125
56	0xbe699b64	-0.22813183
57	0x3e0b6183	0.13611417
58	0xbc88ebd1	-0.016714009
59	0xbe2c5373	-0.16828708
60	0x3be7c5fb	0.0070731617
61	0x3e6e64e6	0.23280677
62	0xbdebe1ce	-0.11517678
63	0xbe3f0c56	-0.1865705
64	0xb9ff3f52	-0.00048684567
65	0xbe7dd272	-0.2478731
66	0x3dafef94	0.08590618
67	0xbdbb287d	-0.09138582
68	0xbe687422	-0.22700551
69	0x3e05469a	0.13015214
70	0xbe39fb13	-0.18162183
71	0xbd22007b	-0.03955124
72	0x3e631c83	0.22178845
73	0x3e3623be	0.17787072
74	0x3e5e0a48	0.2168361
75	0xbe87d13b	-0.26526818
76	0xbe949093	-0.2901655
77	0x3e87caaf	0.26521823
78	0x3e4b0d3a	0.19829264
79	0x3b2b2bf0	0.0026118718
80	0x3e54d9d5	0.20786221
81	0xbe0af095	-0.13568337
82	0xbe4b1f27	-0.19836102
83	0xbe756e7f	-0.23967932
84	0x3e62bce7	0.22142373
85	0xbd2ba4cb	-0.041905206
86	0xbe1b4556	-0.15163168
87	0xbe0dc567	-0.13844834
88	0x3df3ddda	0.11907549
89	0x3e804856	0.25055188
90	0xbd871540	-0.0659585
91	0x3e1af701	0.15133287
92	0xbe258a13	-0.16165952
93	0xbe76ae0f	-0.24089836
94	0x3e668b45	0.22514065
95	0xbdffb741	-0.12486125
96	0xbe4cec48	-0.20012009
97	0x3e54c387	0.20777713
98	0xbe89bf1b	-0.26903614
99	0xbb360615	-0.0027774621
100	0xbe0a4a04	-0.13504797
101	0xbd3637ab	-0.044486683
102	0xbdaa4d74	-0.08315554
103	0x3d453921	0.048150185
104	0xbe0e44b9	-0.13893403
105	0x3e510f70	0.20416045
106	0x3e2a82da	0.16651478
107	0x3dc0caad	0.09413657
108	0x3e604e3e	0.21904847
109	0x3dc7b979	0.09752173
110	0xbd8b2d9c	-0.06795809
111	0x3e897a72	0.2685123
112	0x3e5c95d0	0.21541524
113	0x3e409361	0.1880622
114	0x3e3bc377	0.18336283
115	0x3defc066	0.11706619
116	0x3d99115d	0.07474015
117	0xbdc71cf8	-0.09722322
118	0xbe352649	-0.17690386
119	0xbe8cfb4b	-0.2753547
120	0xbdb15e27	-0.08660536
121	0x3e70f218	0.23529851
122	0xbe1a8528	-0.15089858
123	0xbe44b5c8	-0.19209969
124	0xbe10a9af	-0.14127229
125	0xbd98d67f	-0.07462787
126	0xbe5c3d6a	-0.21507803
127	0x3cf5ce66	0.030005645
128	0xbe8081b5	-0.2509896
129	0xbd9185c7	-0.07105594
130	0xbdb0bcbc	-0.08629748
131	0xbdb69365	-0.08914832
132	0x3746f612	1.1859012e-05
133	0xbe1ab713	-0.151089
134	0x3e5af9dd	0.21384378
135	0x3e17bd45	0.14818294
136	0xbccf7865	-0.025325963
137	0xbdacadf4	-0.084316164
138	0x3ddbefe5	0.107391156
139	0x3e4a7360	0.19770575
140	0x3e16a4a8	0.14711249
141	0x3e63bbc9	0.22239603
142	0xbe228365	-0.15870436
143	0xbd2780e7	-0.040894415
144	0x3e02f5f9	0.12789144
145	0x3e59af70	0.2125833
146	0xbd52fe31	-0.051511947
147	0x3e590c0c	0.21196002
148	0xbe3751d0	-0.17902303
149	0x3e465484	0.19368178
150	0x3d88298e	0.06648551
151	0x3e5d634a	0.21619907
152	0x3e242f46	0.16033658
153	0xbe6916fa	-0.22762671
154	0xbd0504dd	-0.03247534
155	0xbe3bd395	-0.18342431
156	0x3dddc74f	0.10829031
157	0x3dcc3d5e	0.09972642
158	0x3cb924ba	0.02260052
159	0x3dcc146e	0.09964834
160	0xbd56e9e5	-0.052469153
161	0x3e7520c3	0.23938279
162	0xbe1114ec	-0.14168137
163	0xbd6b33fb	-0.05742262
164	0x3cac83a3	0.021058863
165	0xbdd701c0	-0.10498381
166	0xbd4670c7	-0.048447397
167	0xbc3a26b1	-0.011361764
168	0xbd7964ec	-0.060887262
169	0x3e3263a1	0.17420818
170	0x3e845429	0.2584546
171	0x3e83c739	0.25737932
172	0x3cd347c1	0.02579105
173	0xbd930011	-0.07177747
174	0xbe78aa85	-0.24283798
175	0xbe163676	-0.14669213
176	0x3e2dd19c	0.16974491
177	0xbdb38e76	-0.08767407
178	0x3e85330e	0.26015514
179	0xbe196c09	-0.14982618
180	0xbe8ede3f	-0.27903935
181	0x3e90128d	0.28139153
182	0xbe22fe47	-0.15917312
183	0x3e1fb15c	0.15595001
184	0xbc0f0427	-0.008729017
185	0x3c361e11	0.011115567
186	0x3e444bb4	0.19169503
187	0x3b8e4a11	0.0043423255
188	0xbe6c6c22	-0.23088124
189	0xbdae8a2e	-0.085224494
190	0x3e400332	0.18751219
191	0x3e6d0037	0.23144613
192	0xbe3ba54e	-0.18324777
193	0x3df59609	0.119915076
194	0x3e2afdcf	0.16698383
195	0xbd2bc655	-0.04193719
196	0xbdeaf45b	-0.11472388
197	0x3d82c81b	0.06385823
198	0xbe1d2310	-0.15345407
199	0x3e2b850c	0.16749972
200	0x3e397955	0.18112691
201	0x3e0c2823	0.13687186
202	0xbe459475	-0.19294913
203	0x3c192a8e	0.009348525
204	0x3e4a7292	0.19770268
205	0x3e54a76e	0.20766994
206	0x3e30ca9e	0.17264792
207	0xbe2ee23a	-0.17078486
208	0xbe4d1ce2	-0.20030549
209	0xbe45ed44	-0.19328791
210	0x3e866d31	0.2625518
211	0x3d11405e	0.035461776
212	0x3e931410	0.28726244
213	0xbe35462f	-0.17702554
214	0xbd3a42df	-0.04547393
215	0x3e1e65d1	0.15468527
216	0xbe817aaf	-0.25288913
217	0xbe4aa8b4	-0.19790918
218	0xbdc32d16	-0.09530084
219	0xbe18d3fd	-0.14924617
220	0xbe368fae	-0.17828247
221	0xbdeb0895	-0.11476246
222	0x3e6d8f5e	0.23199221
223	0x3e4ad1b4	0.19806558
224	0x3e15671c	0.14590114
225	0x3e71a240	0.2359705
226	0x3d8c6715	0.06855599
227	0xbc4495f6	-0.011998644
228	0xbd51c6a8	-0.051214844
229	0xbe05b90b	-0.1305887
230	0x3e0441d4	0.12915736
231	0x3e78852f	0.24269556
232	0xbe506058	-0.20349252
233	0xbe909d07	-0.28244802
234	0xbdc094b7	-0.09403365
235	0xbe59faa8	-0.21287024
236	0xbe1617bc	-0.14657491
237	0x3eb4b2d3	0.35292682
238	0x3e14c574	0.14528447
239	0xbd95f10c	-0.07321367
240	0xbe81e3ff	-0.2536926
241	0xbe1b4ca8	-0.15165961
242	0x3e25c448	0.16188157
243	0x3d0b82d8	0.03406033
244	0xbe4017b5	-0.18759044
245	0xbd5c4f53	-0.053786587
246	0xbdcbc67d	-0.09949968
247	0xbe4a40f9	-0.19751348
248	0x3e51d45b	0.20491163
249	0xbe28756b	-0.16451041
250	0x3e2c7a2c	0.1684348
251	0xbd9e011f	-0.077150576
252	0x3e0914fb	0.1338691
253	0xbe3ecff2	-0.18634012
254	0xbcc2cbe3	-0.023778861
255	0xbe18ddde	-0.14928386

fc2.bias f4 [10]
0	0x3ca9edc3	0.020743256
1	0x3e038924	0.12845284
2	0xbcd95e51	-0.026534231
3	0xbdfff881	-0.1249857
4	0xbd517bf0	-0.051143587
5	0x3dd420a1	0.10357786
6	0xbe6f7ec0	-0.23388195
7	0xbe21d606	-0.158043
8	0x3e26c134	0.16284639
9	0xbdf49d0b	-0.11944016
